…
I0829 23:57:40.475069  7708 upgrade_proto.cpp:52] Attempting to upgrade input file specified using deprecated V1LayerParameter: /home/prabindh/work-2016/caffe-facialkp/facialkp.prototxt
I0829 23:57:40.475159  7708 upgrade_proto.cpp:60] Successfully upgraded file specified using deprecated V1LayerParameter
I0829 23:57:40.475241  7708 net.cpp:323] The NetState phase (0) differed from the phase (1) specified by a rule in layer data
I0829 23:57:40.475386  7708 net.cpp:52] Initializing net from parameters: 
name: "FKPReg"
state {
  phase: TRAIN
}
layer {
  name: "fkp"
  type: "HDF5Data"
  top: "data"
  top: "label"
  include {
    phase: TRAIN
  }
  hdf5_data_param {
    source: "train.txt"
    batch_size: 64
  }
}
layer {
  name: "conv1"
  type: "Convolution"
  bottom: "data"
  top: "conv1"
  convolution_param {
    num_output: 32
    kernel_size: 11
    stride: 2
    bias_filler {
      type: "constant"
      value: 0.1
    }
  }
}
layer {
  name: "relu2"
  type: "ReLU"
  bottom: "conv1"
  top: "conv1"
}
layer {
  name: "pool1"
  type: "Pooling"
  bottom: "conv1"
  top: "pool1"
  pooling_param {
    pool: MAX
    kernel_size: 2
    stride: 2
  }
}
layer {
  name: "conv2"
  type: "Convolution"
  bottom: "pool1"
  top: "conv2"
  convolution_param {
    num_output: 64
    pad: 2
    kernel_size: 7
    group: 2
    bias_filler {
      type: "constant"
      value: 0.1
    }
  }
}
layer {
  name: "relu2"
  type: "ReLU"
  bottom: "conv2"
  top: "conv2"
}
layer {
  name: "pool2"
  type: "Pooling"
  bottom: "conv2"
  top: "pool2"
  pooling_param {
    pool: MAX
    kernel_size: 2
    stride: 2
  }
}
layer {
  name: "norm2"
  type: "LRN"
  bottom: "pool2"
  top: "norm2"
  lrn_param {
    local_size: 3
    alpha: 5e-05
    beta: 0.75
    norm_region: WITHIN_CHANNEL
  }
}
layer {
  name: "conv3"
  type: "Convolution"
  bottom: "norm2"
  top: "conv3"
  convolution_param {
    num_output: 32
    pad: 1
    kernel_size: 5
    bias_filler {
      type: "constant"
      value: 0.1
    }
  }
}
layer {
  name: "relu3"
  type: "ReLU"
  bottom: "conv3"
  top: "conv3"
}
layer {
  name: "conv4"
  type: "Convolution"
  bottom: "conv3"
  top: "conv4"
  convolution_param {
    num_output: 64
    pad: 1
    kernel_size: 5
    bias_filler {
      type: "constant"
      value: 0.1
    }
  }
}
layer {
  name: "relu4"
  type: "ReLU"
  bottom: "conv4"
  top: "conv4"
}
layer {
  name: "conv5"
  type: "Convolution"
  bottom: "conv4"
  top: "conv5"
  convolution_param {
    num_output: 32
    pad: 1
    kernel_size: 5
    bias_filler {
      type: "constant"
      value: 0.1
    }
  }
}
layer {
  name: "relu5"
  type: "ReLU"
  bottom: "conv5"
  top: "conv5"
}
layer {
  name: "pool5"
  type: "Pooling"
  bottom: "conv5"
  top: "pool5"
  pooling_param {
    pool: MAX
    kernel_size: 4
    stride: 2
  }
}
layer {
  name: "drop0"
  type: "Dropout"
  bottom: "pool5"
  top: "pool5"
  dropout_param {
    dropout_ratio: 0.5
  }
}
layer {
  name: "ip1"
  type: "InnerProduct"
  bottom: "pool5"
  top: "ip1"
  inner_product_param {
    num_output: 100
    bias_filler {
      type: "constant"
      value: 0.1
    }
  }
}
layer {
  name: "relu4"
  type: "ReLU"
  bottom: "ip1"
  top: "ip1"
}
layer {
  name: "drop1"
  type: "Dropout"
  bottom: "ip1"
  top: "ip1"
  dropout_param {
    dropout_ratio: 0.5
  }
}
layer {
  name: "ip2"
  type: "InnerProduct"
  bottom: "ip1"
  top: "ip2"
  inner_product_param {
    num_output: 30
    bias_filler {
      type: "constant"
      value: 0.1
    }
  }
}
layer {
  name: "relu22"
  type: "ReLU"
  bottom: "ip2"
  top: "ip2"
}
layer {
  name: "loss"
  type: "EuclideanLoss"
  bottom: "ip2"
  bottom: "label"
  top: "loss"
}
I0829 23:57:40.475651  7708 layer_factory.hpp:77] Creating layer fkp
I0829 23:57:40.475679  7708 net.cpp:94] Creating Layer fkp
I0829 23:57:40.475684  7708 net.cpp:409] fkp -> data
I0829 23:57:40.475724  7708 net.cpp:409] fkp -> label
I0829 23:57:40.475749  7708 hdf5_data_layer.cpp:79] Loading list of HDF5 filenames from: train.txt
I0829 23:57:40.475801  7708 hdf5_data_layer.cpp:93] Number of HDF5 files: 1
I0829 23:57:40.476459  7708 hdf5.cpp:32] Datatype class: H5T_FLOAT
I0829 23:57:40.799655  7708 net.cpp:144] Setting up fkp
I0829 23:57:40.799700  7708 net.cpp:151] Top shape: 64 1 96 96 (589824)
I0829 23:57:40.799706  7708 net.cpp:151] Top shape: 64 30 (1920)
I0829 23:57:40.799711  7708 net.cpp:159] Memory required for data: 2366976
I0829 23:57:40.799739  7708 layer_factory.hpp:77] Creating layer conv1
I0829 23:57:40.799770  7708 net.cpp:94] Creating Layer conv1
I0829 23:57:40.799795  7708 net.cpp:435] conv1 <- data
I0829 23:57:40.799808  7708 net.cpp:409] conv1 -> conv1
I0829 23:57:41.778355  7708 net.cpp:144] Setting up conv1
I0829 23:57:41.778427  7708 net.cpp:151] Top shape: 64 32 43 43 (3786752)
I0829 23:57:41.778441  7708 net.cpp:159] Memory required for data: 17513984
I0829 23:57:41.778501  7708 layer_factory.hpp:77] Creating layer relu2
I0829 23:57:41.778545  7708 net.cpp:94] Creating Layer relu2
I0829 23:57:41.778561  7708 net.cpp:435] relu2 <- conv1
I0829 23:57:41.778580  7708 net.cpp:396] relu2 -> conv1 (in-place)
I0829 23:57:41.778623  7708 net.cpp:144] Setting up relu2
I0829 23:57:41.778645  7708 net.cpp:151] Top shape: 64 32 43 43 (3786752)
I0829 23:57:41.778655  7708 net.cpp:159] Memory required for data: 32660992
I0829 23:57:41.778664  7708 layer_factory.hpp:77] Creating layer pool1
I0829 23:57:41.778682  7708 net.cpp:94] Creating Layer pool1
I0829 23:57:41.778697  7708 net.cpp:435] pool1 <- conv1
I0829 23:57:41.778714  7708 net.cpp:409] pool1 -> pool1
I0829 23:57:41.778759  7708 net.cpp:144] Setting up pool1
I0829 23:57:41.778779  7708 net.cpp:151] Top shape: 64 32 22 22 (991232)
I0829 23:57:41.778794  7708 net.cpp:159] Memory required for data: 36625920
I0829 23:57:41.778807  7708 layer_factory.hpp:77] Creating layer conv2
I0829 23:57:41.778837  7708 net.cpp:94] Creating Layer conv2
I0829 23:57:41.778851  7708 net.cpp:435] conv2 <- pool1
I0829 23:57:41.778873  7708 net.cpp:409] conv2 -> conv2
I0829 23:57:41.829759  7708 net.cpp:144] Setting up conv2
I0829 23:57:41.829845  7708 net.cpp:151] Top shape: 64 64 20 20 (1638400)
I0829 23:57:41.829859  7708 net.cpp:159] Memory required for data: 43179520
I0829 23:57:41.829900  7708 layer_factory.hpp:77] Creating layer relu2
I0829 23:57:41.829926  7708 net.cpp:94] Creating Layer relu2
I0829 23:57:41.829943  7708 net.cpp:435] relu2 <- conv2
I0829 23:57:41.829964  7708 net.cpp:396] relu2 -> conv2 (in-place)
I0829 23:57:41.829999  7708 net.cpp:144] Setting up relu2
I0829 23:57:41.830014  7708 net.cpp:151] Top shape: 64 64 20 20 (1638400)
I0829 23:57:41.830024  7708 net.cpp:159] Memory required for data: 49733120
I0829 23:57:41.830034  7708 layer_factory.hpp:77] Creating layer pool2
I0829 23:57:41.830060  7708 net.cpp:94] Creating Layer pool2
I0829 23:57:41.830072  7708 net.cpp:435] pool2 <- conv2
I0829 23:57:41.830090  7708 net.cpp:409] pool2 -> pool2
I0829 23:57:41.830118  7708 net.cpp:144] Setting up pool2
I0829 23:57:41.830139  7708 net.cpp:151] Top shape: 64 64 10 10 (409600)
I0829 23:57:41.830153  7708 net.cpp:159] Memory required for data: 51371520
I0829 23:57:41.830166  7708 layer_factory.hpp:77] Creating layer norm2
I0829 23:57:41.830193  7708 net.cpp:94] Creating Layer norm2
I0829 23:57:41.830209  7708 net.cpp:435] norm2 <- pool2
I0829 23:57:41.830226  7708 net.cpp:409] norm2 -> norm2
I0829 23:57:41.830348  7708 net.cpp:144] Setting up norm2
I0829 23:57:41.830371  7708 net.cpp:151] Top shape: 64 64 10 10 (409600)
I0829 23:57:41.830384  7708 net.cpp:159] Memory required for data: 53009920
I0829 23:57:41.830394  7708 layer_factory.hpp:77] Creating layer conv3
I0829 23:57:41.830487  7708 net.cpp:94] Creating Layer conv3
I0829 23:57:41.830505  7708 net.cpp:435] conv3 <- norm2
I0829 23:57:41.830528  7708 net.cpp:409] conv3 -> conv3
I0829 23:57:41.847663  7708 net.cpp:144] Setting up conv3
I0829 23:57:41.847714  7708 net.cpp:151] Top shape: 64 32 8 8 (131072)
I0829 23:57:41.847726  7708 net.cpp:159] Memory required for data: 53534208
I0829 23:57:41.847759  7708 layer_factory.hpp:77] Creating layer relu3
I0829 23:57:41.847781  7708 net.cpp:94] Creating Layer relu3
I0829 23:57:41.847795  7708 net.cpp:435] relu3 <- conv3
I0829 23:57:41.847820  7708 net.cpp:396] relu3 -> conv3 (in-place)
I0829 23:57:41.847846  7708 net.cpp:144] Setting up relu3
I0829 23:57:41.847859  7708 net.cpp:151] Top shape: 64 32 8 8 (131072)
I0829 23:57:41.847868  7708 net.cpp:159] Memory required for data: 54058496
I0829 23:57:41.847879  7708 layer_factory.hpp:77] Creating layer conv4
I0829 23:57:41.847904  7708 net.cpp:94] Creating Layer conv4
I0829 23:57:41.847915  7708 net.cpp:435] conv4 <- conv3
I0829 23:57:41.847934  7708 net.cpp:409] conv4 -> conv4
I0829 23:57:41.858518  7708 net.cpp:144] Setting up conv4
I0829 23:57:41.858566  7708 net.cpp:151] Top shape: 64 64 6 6 (147456)
I0829 23:57:41.858582  7708 net.cpp:159] Memory required for data: 54648320
I0829 23:57:41.858605  7708 layer_factory.hpp:77] Creating layer relu4
I0829 23:57:41.858626  7708 net.cpp:94] Creating Layer relu4
I0829 23:57:41.858639  7708 net.cpp:435] relu4 <- conv4
I0829 23:57:41.858660  7708 net.cpp:396] relu4 -> conv4 (in-place)
I0829 23:57:41.858685  7708 net.cpp:144] Setting up relu4
I0829 23:57:41.858700  7708 net.cpp:151] Top shape: 64 64 6 6 (147456)
I0829 23:57:41.858712  7708 net.cpp:159] Memory required for data: 55238144
I0829 23:57:41.858726  7708 layer_factory.hpp:77] Creating layer conv5
I0829 23:57:41.858749  7708 net.cpp:94] Creating Layer conv5
I0829 23:57:41.858762  7708 net.cpp:435] conv5 <- conv4
I0829 23:57:41.858779  7708 net.cpp:409] conv5 -> conv5
I0829 23:57:41.866411  7708 net.cpp:144] Setting up conv5
I0829 23:57:41.866457  7708 net.cpp:151] Top shape: 64 32 4 4 (32768)
I0829 23:57:41.866469  7708 net.cpp:159] Memory required for data: 55369216
I0829 23:57:41.866497  7708 layer_factory.hpp:77] Creating layer relu5
I0829 23:57:41.866519  7708 net.cpp:94] Creating Layer relu5
I0829 23:57:41.866533  7708 net.cpp:435] relu5 <- conv5
I0829 23:57:41.866550  7708 net.cpp:396] relu5 -> conv5 (in-place)
I0829 23:57:41.866575  7708 net.cpp:144] Setting up relu5
I0829 23:57:41.866592  7708 net.cpp:151] Top shape: 64 32 4 4 (32768)
I0829 23:57:41.866603  7708 net.cpp:159] Memory required for data: 55500288
I0829 23:57:41.866614  7708 layer_factory.hpp:77] Creating layer pool5
I0829 23:57:41.866631  7708 net.cpp:94] Creating Layer pool5
I0829 23:57:41.866647  7708 net.cpp:435] pool5 <- conv5
I0829 23:57:41.866662  7708 net.cpp:409] pool5 -> pool5
I0829 23:57:41.866689  7708 net.cpp:144] Setting up pool5
I0829 23:57:41.866705  7708 net.cpp:151] Top shape: 64 32 1 1 (2048)
I0829 23:57:41.866719  7708 net.cpp:159] Memory required for data: 55508480
I0829 23:57:41.866729  7708 layer_factory.hpp:77] Creating layer drop0
I0829 23:57:41.866746  7708 net.cpp:94] Creating Layer drop0
I0829 23:57:41.866758  7708 net.cpp:435] drop0 <- pool5
I0829 23:57:41.866776  7708 net.cpp:396] drop0 -> pool5 (in-place)
I0829 23:57:41.866798  7708 net.cpp:144] Setting up drop0
I0829 23:57:41.866813  7708 net.cpp:151] Top shape: 64 32 1 1 (2048)
I0829 23:57:41.866824  7708 net.cpp:159] Memory required for data: 55516672
I0829 23:57:41.866837  7708 layer_factory.hpp:77] Creating layer ip1
I0829 23:57:41.866860  7708 net.cpp:94] Creating Layer ip1
I0829 23:57:41.866873  7708 net.cpp:435] ip1 <- pool5
I0829 23:57:41.866889  7708 net.cpp:409] ip1 -> ip1
I0829 23:57:41.866935  7708 net.cpp:144] Setting up ip1
I0829 23:57:41.866950  7708 net.cpp:151] Top shape: 64 100 (6400)
I0829 23:57:41.866961  7708 net.cpp:159] Memory required for data: 55542272
I0829 23:57:41.866979  7708 layer_factory.hpp:77] Creating layer relu4
I0829 23:57:41.866997  7708 net.cpp:94] Creating Layer relu4
I0829 23:57:41.867060  7708 net.cpp:435] relu4 <- ip1
I0829 23:57:41.867079  7708 net.cpp:396] relu4 -> ip1 (in-place)
I0829 23:57:41.867097  7708 net.cpp:144] Setting up relu4
I0829 23:57:41.867115  7708 net.cpp:151] Top shape: 64 100 (6400)
I0829 23:57:41.867125  7708 net.cpp:159] Memory required for data: 55567872
I0829 23:57:41.867136  7708 layer_factory.hpp:77] Creating layer drop1
I0829 23:57:41.867151  7708 net.cpp:94] Creating Layer drop1
I0829 23:57:41.867163  7708 net.cpp:435] drop1 <- ip1
I0829 23:57:41.867178  7708 net.cpp:396] drop1 -> ip1 (in-place)
I0829 23:57:41.867197  7708 net.cpp:144] Setting up drop1
I0829 23:57:41.867209  7708 net.cpp:151] Top shape: 64 100 (6400)
I0829 23:57:41.867223  7708 net.cpp:159] Memory required for data: 55593472
I0829 23:57:41.867231  7708 layer_factory.hpp:77] Creating layer ip2
I0829 23:57:41.867247  7708 net.cpp:94] Creating Layer ip2
I0829 23:57:41.867259  7708 net.cpp:435] ip2 <- ip1
I0829 23:57:41.867278  7708 net.cpp:409] ip2 -> ip2
I0829 23:57:41.867313  7708 net.cpp:144] Setting up ip2
I0829 23:57:41.867329  7708 net.cpp:151] Top shape: 64 30 (1920)
I0829 23:57:41.867341  7708 net.cpp:159] Memory required for data: 55601152
I0829 23:57:41.867362  7708 layer_factory.hpp:77] Creating layer relu22
I0829 23:57:41.867375  7708 net.cpp:94] Creating Layer relu22
I0829 23:57:41.867388  7708 net.cpp:435] relu22 <- ip2
I0829 23:57:41.867403  7708 net.cpp:396] relu22 -> ip2 (in-place)
I0829 23:57:41.867420  7708 net.cpp:144] Setting up relu22
I0829 23:57:41.867434  7708 net.cpp:151] Top shape: 64 30 (1920)
I0829 23:57:41.867444  7708 net.cpp:159] Memory required for data: 55608832
I0829 23:57:41.867455  7708 layer_factory.hpp:77] Creating layer loss
I0829 23:57:41.867473  7708 net.cpp:94] Creating Layer loss
I0829 23:57:41.867485  7708 net.cpp:435] loss <- ip2
I0829 23:57:41.867497  7708 net.cpp:435] loss <- label
I0829 23:57:41.867516  7708 net.cpp:409] loss -> loss
I0829 23:57:41.867544  7708 net.cpp:144] Setting up loss
…
I0829 23:57:41.868702  7708 solver.cpp:181] Creating test net (#0) specified by net file: /home/prabindh/work-2016/caffe-facialkp/facialkp.prototxt
I0829 23:57:41.868775  7708 net.cpp:323] The NetState phase (1) differed from the phase (0) specified by a rule in layer fkp
I0829 23:57:41.869073  7708 net.cpp:52] Initializing net from parameters: 
name: "FKPReg"
state {
  phase: TEST
}
layer {
  name: "data"
  type: "HDF5Data"
  top: "data"
  top: "label"
  include {
    phase: TEST
  }
  hdf5_data_param {
    source: "test.txt"
    batch_size: 100
  }
}
layer {
  name: "conv1"
  type: "Convolution"
  bottom: "data"
  top: "conv1"
  convolution_param {
    num_output: 32
    kernel_size: 11
    stride: 2
    bias_filler {
      type: "constant"
      value: 0.1
    }
  }
}
layer {
  name: "relu2"
  type: "ReLU"
  bottom: "conv1"
  top: "conv1"
}
layer {
  name: "pool1"
  type: "Pooling"
  bottom: "conv1"
  top: "pool1"
  pooling_param {
    pool: MAX
    kernel_size: 2
    stride: 2
  }
}
layer {
  name: "conv2"
  type: "Convolution"
  bottom: "pool1"
  top: "conv2"
  convolution_param {
    num_output: 64
    pad: 2
    kernel_size: 7
    group: 2
    bias_filler {
      type: "constant"
      value: 0.1
    }
  }
}
layer {
  name: "relu2"
  type: "ReLU"
  bottom: "conv2"
  top: "conv2"
}
layer {
  name: "pool2"
  type: "Pooling"
  bottom: "conv2"
  top: "pool2"
  pooling_param {
    pool: MAX
    kernel_size: 2
    stride: 2
  }
}
layer {
  name: "norm2"
  type: "LRN"
  bottom: "pool2"
  top: "norm2"
  lrn_param {
    local_size: 3
    alpha: 5e-05
    beta: 0.75
    norm_region: WITHIN_CHANNEL
  }
}
layer {
  name: "conv3"
  type: "Convolution"
  bottom: "norm2"
  top: "conv3"
  convolution_param {
    num_output: 32
    pad: 1
    kernel_size: 5
    bias_filler {
      type: "constant"
      value: 0.1
    }
  }
}
layer {
  name: "relu3"
  type: "ReLU"
  bottom: "conv3"
  top: "conv3"
}
layer {
  name: "conv4"
  type: "Convolution"
  bottom: "conv3"
  top: "conv4"
  convolution_param {
    num_output: 64
    pad: 1
    kernel_size: 5
    bias_filler {
      type: "constant"
      value: 0.1
    }
  }
}
layer {
  name: "relu4"
  type: "ReLU"
  bottom: "conv4"
  top: "conv4"
}
layer {
  name: "conv5"
  type: "Convolution"
  bottom: "conv4"
  top: "conv5"
  convolution_param {
    num_output: 32
    pad: 1
    kernel_size: 5
    bias_filler {
      type: "constant"
      value: 0.1
    }
  }
}
layer {
  name: "relu5"
  type: "ReLU"
  bottom: "conv5"
  top: "conv5"
}
layer {
  name: "pool5"
  type: "Pooling"
  bottom: "conv5"
  top: "pool5"
  pooling_param {
    pool: MAX
    kernel_size: 4
    stride: 2
  }
}
layer {
  name: "drop0"
  type: "Dropout"
  bottom: "pool5"
  top: "pool5"
  dropout_param {
    dropout_ratio: 0.5
  }
}
layer {
  name: "ip1"
  type: "InnerProduct"
  bottom: "pool5"
  top: "ip1"
  inner_product_param {
    num_output: 100
    bias_filler {
      type: "constant"
      value: 0.1
    }
  }
}
layer {
  name: "relu4"
  type: "ReLU"
  bottom: "ip1"
  top: "ip1"
}
layer {
  name: "drop1"
  type: "Dropout"
  bottom: "ip1"
  top: "ip1"
  dropout_param {
    dropout_ratio: 0.5
  }
}
layer {
  name: "ip2"
  type: "InnerProduct"
  bottom: "ip1"
  top: "ip2"
  inner_product_param {
    num_output: 30
    bias_filler {
      type: "constant"
      value: 0.1
    }
  }
}
layer {
  name: "relu22"
  type: "ReLU"
  bottom: "ip2"
  top: "ip2"
}
layer {
  name: "loss"
  type: "EuclideanLoss"
  bottom: "ip2"
  bottom: "label"
  top: "loss"
}
I0829 23:57:41.869551  7708 layer_factory.hpp:77] Creating layer data
I0829 23:57:41.869575  7708 net.cpp:94] Creating Layer data
I0829 23:57:41.869588  7708 net.cpp:409] data -> data
I0829 23:57:41.869611  7708 net.cpp:409] data -> label
I0829 23:57:41.869633  7708 hdf5_data_layer.cpp:79] Loading list of HDF5 filenames from: test.txt
I0829 23:57:41.869674  7708 hdf5_data_layer.cpp:93] Number of HDF5 files: 1
I0829 23:57:41.983588  7708 net.cpp:144] Setting up data
I0829 23:57:41.983629  7708 net.cpp:151] Top shape: 100 1 96 96 (921600)
I0829 23:57:41.983633  7708 net.cpp:151] Top shape: 100 30 (3000)
I0829 23:57:41.983649  7708 net.cpp:159] Memory required for data: 3698400
I0829 23:57:41.983656  7708 layer_factory.hpp:77] Creating layer conv1
I0829 23:57:41.983690  7708 net.cpp:94] Creating Layer conv1
I0829 23:57:41.983693  7708 net.cpp:435] conv1 <- data
I0829 23:57:41.983700  7708 net.cpp:409] conv1 -> conv1
I0829 23:57:41.996345  7708 net.cpp:144] Setting up conv1
I0829 23:57:41.996373  7708 net.cpp:151] Top shape: 100 32 43 43 (5916800)
I0829 23:57:41.996376  7708 net.cpp:159] Memory required for data: 27365600
I0829 23:57:41.996389  7708 layer_factory.hpp:77] Creating layer relu2
I0829 23:57:41.996398  7708 net.cpp:94] Creating Layer relu2
I0829 23:57:41.996404  7708 net.cpp:435] relu2 <- conv1
I0829 23:57:41.996412  7708 net.cpp:396] relu2 -> conv1 (in-place)
I0829 23:57:41.996422  7708 net.cpp:144] Setting up relu2
I0829 23:57:41.996426  7708 net.cpp:151] Top shape: 100 32 43 43 (5916800)
I0829 23:57:41.996431  7708 net.cpp:159] Memory required for data: 51032800
I0829 23:57:41.996434  7708 layer_factory.hpp:77] Creating layer pool1
I0829 23:57:41.996440  7708 net.cpp:94] Creating Layer pool1
I0829 23:57:41.996443  7708 net.cpp:435] pool1 <- conv1
I0829 23:57:41.996449  7708 net.cpp:409] pool1 -> pool1
I0829 23:57:41.996459  7708 net.cpp:144] Setting up pool1
I0829 23:57:41.996462  7708 net.cpp:151] Top shape: 100 32 22 22 (1548800)
I0829 23:57:41.996466  7708 net.cpp:159] Memory required for data: 57228000
I0829 23:57:41.996470  7708 layer_factory.hpp:77] Creating layer conv2
I0829 23:57:41.996479  7708 net.cpp:94] Creating Layer conv2
I0829 23:57:41.996484  7708 net.cpp:435] conv2 <- pool1
I0829 23:57:41.996489  7708 net.cpp:409] conv2 -> conv2
I0829 23:57:42.012689  7708 net.cpp:144] Setting up conv2
I0829 23:57:42.012708  7708 net.cpp:151] Top shape: 100 64 20 20 (2560000)
I0829 23:57:42.012712  7708 net.cpp:159] Memory required for data: 67468000
I0829 23:57:42.012720  7708 layer_factory.hpp:77] Creating layer relu2
I0829 23:57:42.012728  7708 net.cpp:94] Creating Layer relu2
I0829 23:57:42.012732  7708 net.cpp:435] relu2 <- conv2
I0829 23:57:42.012738  7708 net.cpp:396] relu2 -> conv2 (in-place)
I0829 23:57:42.012747  7708 net.cpp:144] Setting up relu2
I0829 23:57:42.012754  7708 net.cpp:151] Top shape: 100 64 20 20 (2560000)
I0829 23:57:42.012758  7708 net.cpp:159] Memory required for data: 77708000
I0829 23:57:42.012759  7708 layer_factory.hpp:77] Creating layer pool2
I0829 23:57:42.012768  7708 net.cpp:94] Creating Layer pool2
I0829 23:57:42.012771  7708 net.cpp:435] pool2 <- conv2
I0829 23:57:42.012775  7708 net.cpp:409] pool2 -> pool2
I0829 23:57:42.012784  7708 net.cpp:144] Setting up pool2
I0829 23:57:42.012787  7708 net.cpp:151] Top shape: 100 64 10 10 (640000)
I0829 23:57:42.012791  7708 net.cpp:159] Memory required for data: 80268000
I0829 23:57:42.012794  7708 layer_factory.hpp:77] Creating layer norm2
I0829 23:57:42.012800  7708 net.cpp:94] Creating Layer norm2
I0829 23:57:42.012804  7708 net.cpp:435] norm2 <- pool2
I0829 23:57:42.012809  7708 net.cpp:409] norm2 -> norm2
I0829 23:57:42.012828  7708 net.cpp:144] Setting up norm2
I0829 23:57:42.012833  7708 net.cpp:151] Top shape: 100 64 10 10 (640000)
I0829 23:57:42.012836  7708 net.cpp:159] Memory required for data: 82828000
I0829 23:57:42.012840  7708 layer_factory.hpp:77] Creating layer conv3
I0829 23:57:42.012848  7708 net.cpp:94] Creating Layer conv3
I0829 23:57:42.012851  7708 net.cpp:435] conv3 <- norm2
I0829 23:57:42.012856  7708 net.cpp:409] conv3 -> conv3
I0829 23:57:42.019178  7708 net.cpp:144] Setting up conv3
I0829 23:57:42.019196  7708 net.cpp:151] Top shape: 100 32 8 8 (204800)
I0829 23:57:42.019199  7708 net.cpp:159] Memory required for data: 83647200
I0829 23:57:42.019208  7708 layer_factory.hpp:77] Creating layer relu3
I0829 23:57:42.019215  7708 net.cpp:94] Creating Layer relu3
I0829 23:57:42.019239  7708 net.cpp:435] relu3 <- conv3
I0829 23:57:42.019245  7708 net.cpp:396] relu3 -> conv3 (in-place)
I0829 23:57:42.019253  7708 net.cpp:144] Setting up relu3
I0829 23:57:42.019258  7708 net.cpp:151] Top shape: 100 32 8 8 (204800)
I0829 23:57:42.019260  7708 net.cpp:159] Memory required for data: 84466400
I0829 23:57:42.019263  7708 layer_factory.hpp:77] Creating layer conv4
I0829 23:57:42.019269  7708 net.cpp:94] Creating Layer conv4
I0829 23:57:42.019273  7708 net.cpp:435] conv4 <- conv3
I0829 23:57:42.019278  7708 net.cpp:409] conv4 -> conv4
I0829 23:57:42.023704  7708 net.cpp:144] Setting up conv4
I0829 23:57:42.023718  7708 net.cpp:151] Top shape: 100 64 6 6 (230400)
I0829 23:57:42.023723  7708 net.cpp:159] Memory required for data: 85388000
I0829 23:57:42.023730  7708 layer_factory.hpp:77] Creating layer relu4
I0829 23:57:42.023735  7708 net.cpp:94] Creating Layer relu4
I0829 23:57:42.023738  7708 net.cpp:435] relu4 <- conv4
I0829 23:57:42.023743  7708 net.cpp:396] relu4 -> conv4 (in-place)
I0829 23:57:42.023751  7708 net.cpp:144] Setting up relu4
I0829 23:57:42.023754  7708 net.cpp:151] Top shape: 100 64 6 6 (230400)
I0829 23:57:42.023756  7708 net.cpp:159] Memory required for data: 86309600
I0829 23:57:42.023759  7708 layer_factory.hpp:77] Creating layer conv5
I0829 23:57:42.023766  7708 net.cpp:94] Creating Layer conv5
I0829 23:57:42.023769  7708 net.cpp:435] conv5 <- conv4
I0829 23:57:42.023775  7708 net.cpp:409] conv5 -> conv5
I0829 23:57:42.025905  7708 net.cpp:144] Setting up conv5
I0829 23:57:42.025919  7708 net.cpp:151] Top shape: 100 32 4 4 (51200)
I0829 23:57:42.025923  7708 net.cpp:159] Memory required for data: 86514400
I0829 23:57:42.025931  7708 layer_factory.hpp:77] Creating layer relu5
I0829 23:57:42.025938  7708 net.cpp:94] Creating Layer relu5
I0829 23:57:42.025941  7708 net.cpp:435] relu5 <- conv5
I0829 23:57:42.025945  7708 net.cpp:396] relu5 -> conv5 (in-place)
I0829 23:57:42.025952  7708 net.cpp:144] Setting up relu5
I0829 23:57:42.025957  7708 net.cpp:151] Top shape: 100 32 4 4 (51200)
I0829 23:57:42.025960  7708 net.cpp:159] Memory required for data: 86719200
I0829 23:57:42.025964  7708 layer_factory.hpp:77] Creating layer pool5
I0829 23:57:42.025969  7708 net.cpp:94] Creating Layer pool5
I0829 23:57:42.025974  7708 net.cpp:435] pool5 <- conv5
I0829 23:57:42.025977  7708 net.cpp:409] pool5 -> pool5
I0829 23:57:42.025985  7708 net.cpp:144] Setting up pool5
I0829 23:57:42.025988  7708 net.cpp:151] Top shape: 100 32 1 1 (3200)
I0829 23:57:42.025991  7708 net.cpp:159] Memory required for data: 86732000
I0829 23:57:42.025995  7708 layer_factory.hpp:77] Creating layer drop0
I0829 23:57:42.026000  7708 net.cpp:94] Creating Layer drop0
I0829 23:57:42.026003  7708 net.cpp:435] drop0 <- pool5
I0829 23:57:42.026010  7708 net.cpp:396] drop0 -> pool5 (in-place)
I0829 23:57:42.026015  7708 net.cpp:144] Setting up drop0
I0829 23:57:42.026020  7708 net.cpp:151] Top shape: 100 32 1 1 (3200)
I0829 23:57:42.026022  7708 net.cpp:159] Memory required for data: 86744800
I0829 23:57:42.026026  7708 layer_factory.hpp:77] Creating layer ip1
I0829 23:57:42.026034  7708 net.cpp:94] Creating Layer ip1
I0829 23:57:42.026038  7708 net.cpp:435] ip1 <- pool5
I0829 23:57:42.026043  7708 net.cpp:409] ip1 -> ip1
I0829 23:57:42.026057  7708 net.cpp:144] Setting up ip1
I0829 23:57:42.026062  7708 net.cpp:151] Top shape: 100 100 (10000)
I0829 23:57:42.026064  7708 net.cpp:159] Memory required for data: 86784800
I0829 23:57:42.026069  7708 layer_factory.hpp:77] Creating layer relu4
I0829 23:57:42.026075  7708 net.cpp:94] Creating Layer relu4
I0829 23:57:42.026079  7708 net.cpp:435] relu4 <- ip1
I0829 23:57:42.026083  7708 net.cpp:396] relu4 -> ip1 (in-place)
I0829 23:57:42.026089  7708 net.cpp:144] Setting up relu4
I0829 23:57:42.026094  7708 net.cpp:151] Top shape: 100 100 (10000)
I0829 23:57:42.026098  7708 net.cpp:159] Memory required for data: 86824800
I0829 23:57:42.026101  7708 layer_factory.hpp:77] Creating layer drop1
I0829 23:57:42.026105  7708 net.cpp:94] Creating Layer drop1
I0829 23:57:42.026109  7708 net.cpp:435] drop1 <- ip1
I0829 23:57:42.026126  7708 net.cpp:396] drop1 -> ip1 (in-place)
I0829 23:57:42.026132  7708 net.cpp:144] Setting up drop1
I0829 23:57:42.026137  7708 net.cpp:151] Top shape: 100 100 (10000)
I0829 23:57:42.026141  7708 net.cpp:159] Memory required for data: 86864800
I0829 23:57:42.026145  7708 layer_factory.hpp:77] Creating layer ip2
I0829 23:57:42.026149  7708 net.cpp:94] Creating Layer ip2
I0829 23:57:42.026154  7708 net.cpp:435] ip2 <- ip1
I0829 23:57:42.026160  7708 net.cpp:409] ip2 -> ip2
I0829 23:57:42.026170  7708 net.cpp:144] Setting up ip2
I0829 23:57:42.026175  7708 net.cpp:151] Top shape: 100 30 (3000)
I0829 23:57:42.026178  7708 net.cpp:159] Memory required for data: 86876800
I0829 23:57:42.026185  7708 layer_factory.hpp:77] Creating layer relu22
I0829 23:57:42.026190  7708 net.cpp:94] Creating Layer relu22
I0829 23:57:42.026192  7708 net.cpp:435] relu22 <- ip2
I0829 23:57:42.026197  7708 net.cpp:396] relu22 -> ip2 (in-place)
I0829 23:57:42.026203  7708 net.cpp:144] Setting up relu22
I0829 23:57:42.026207  7708 net.cpp:151] Top shape: 100 30 (3000)
I0829 23:57:42.026211  7708 net.cpp:159] Memory required for data: 86888800
I0829 23:57:42.026214  7708 layer_factory.hpp:77] Creating layer loss
I0829 23:57:42.026221  7708 net.cpp:94] Creating Layer loss
I0829 23:57:42.026224  7708 net.cpp:435] loss <- ip2
I0829 23:57:42.026228  7708 net.cpp:435] loss <- label
I0829 23:57:42.026234  7708 net.cpp:409] loss -> loss
I0829 23:57:42.026242  7708 net.cpp:144] Setting up loss
…
